utils/data.pth (torch, 5719 bytes, 6 tensors)

l1.weight f4 [8, 68]
000000 c5 a3 83 be 4b b6 be be 49 03 c5 3e a3 14 42 be
       -0.25710884 -0.37248453 0.3847907 -0.18953185
000010 b4 4c f2 be 52 3a 05 be 86 b8 17 3f 82 13 ea be
       -0.47324145 -0.13010529 0.59265935 -0.45718008
000020 18 06 93 be e3 49 c1 3e 7e af 53 be 83 95 0a bf
       -0.28715587 0.37751684 -0.20672414 -0.54134387
000030 db 33 b9 be 76 54 c4 be 0b f6 e5 3e b5 6e da 3e
       -0.36172375 -0.3834569 0.44914278 0.42662588
000040 6c de c7 be 4c 90 42 be fc 56 d6 be d7 ab 15 3f
       -0.39036882 -0.19000357 -0.4186324 0.5846533
000050 6f d7 20 3e 60 5e e2 be 10 b3 f6 be 81 a4 90 be
       0.15707181 -0.44212627 -0.4818349 -0.28250507
000060 b1 b4 5e be 6b b3 b5 be 40 83 9a 3e 35 80 0d 3f
       -0.21748616 -0.35488448 0.3017826 0.55273753
000070 b0 89 99 3e c3 44 a9 3e 08 37 ba 3e 5e fd e0 3e
       0.2998786 0.33060274 0.3637011 0.43943304
000080 74 83 89 bd 17 bc 7a 3e c6 31 c8 3e 93 15 1d 3f
       -0.06714526 0.24485813 0.39100474 0.61361045
000090 a9 f0 af 3e 6a 8c bd be 31 3b 6c 3f 48 17 58 bd
       0.34363297 -0.3702119 0.9227782 -0.052756578
0000a0 a6 b6 5b be 52 1b 3a be 5f cc 02 3f e9 f7 ff 3e
       -0.21456394 -0.18174484 0.51093096 0.49993828
0000b0 bc b8 be be d2 d8 1e be 96 1f 5d be 44 c6 24 3f
       -0.37250316 -0.15512398 -0.2159408 0.6436503
0000c0 f8 9f 74 3e 7f 6b 09 3f 65 da 2e 3e 7a 59 9f 3e
       0.23889148 0.5367965 0.17075498 0.31122953
0000d0 12 ed 0d be 96 7c af bd 02 50 d4 3e ff 96 7d 3e
       -0.13859966 -0.08568685 0.4146729 0.24764632
0000e0 78 c5 1f bf c8 45 e1 be b7 4f 02 3f 58 0c c5 3e
       -0.6241069 -0.4399855 0.50902885 0.3848598
0000f0 76 c4 87 be 96 e1 c0 bd f8 dc c2 be 8f d6 54 3f
       -0.26517075 -0.09418027 -0.3805921 0.8313989
000100 64 fc 68 3d e0 f6 d9 3e 5f d7 bf bd 42 bc 0f be
       0.056881323 0.42571163 -0.09367251 -0.14036658
000110 6d 17 ef 3e 29 29 c9 be 0b 03 80 3e f9 69 27 3f
       0.4669756 -0.39289215 0.25002322 0.65396076
000120 4c ae 48 3f f3 a8 e1 3d ad 5c e1 3e ce 82 08 be
       0.78390956 0.11018553 0.44016019 -0.13331148
000130 45 96 dc be 1e 32 66 3f f3 b6 20 3f 8d 6e 49 3f
       -0.43083397 0.8992022 0.6277916 0.7868431
000140 c8 66 6b be 49 76 6f 3b 4a e4 c8 bb 5f bc 79 be
       -0.22988427 0.003653901 -0.00613073 -0.24388264
000150 2d 87 c6 3c 7b 6a 92 be a6 0b 0f bd 6c 83 77 3e
       0.024234379 -0.28596863 -0.03492322 0.24171227
000160 4f 51 a4 be 11 c3 fd be 88 ff 84 be 61 ca 4c be
       -0.32093284 -0.49562886 -0.25976205 -0.19999076
000170 b0 04 9c bd ad 9e e8 bd 73 bb 87 be ea b3 51 3e
       -0.076180816 -0.1135839 -0.265102 0.20478788
000180 ab e9 6e 3f 6c a5 77 3f 96 73 43 3f 91 3b 3b be
       0.933253 0.9673679 0.76348245 -0.18284442
000190 f2 08 26 3f f9 f5 be 3e 6f 85 94 3d 3a b0 dd be
       0.648574 0.37297037 0.07252013 -0.43298513
0001a0 4b 4a 23 be 72 bc da be 3f a5 ae 3e e0 95 72 be
       -0.1594631 -0.42721897 0.34110448 -0.23689985
0001b0 33 b6 4f bd 85 2a b7 bd 2b ac 0a 3e 0a df 86 be
       -0.050710868 -0.08943657 0.1354224 -0.2634204
0001c0 d0 84 e1 3d ed d1 d6 3e 91 b1 02 3d af 9a 8a 3e
       0.1101166 0.41957036 0.03190762 0.2707114
0001d0 7c 29 e9 bd 5e d0 e5 3d c7 b7 61 3e 06 d7 54 bd
       -0.11384866 0.112213835 0.22042762 -0.051962875
0001e0 23 c6 49 bd 66 d2 1c 3f d0 5d be bd 5b fe 3a 3f
       -0.049261224 0.6125854 -0.09295237 0.73044366
0001f0 20 99 01 be 8d 3a 3e 3d 3b fa 7b be 55 f2 09 be
       -0.12656069 0.046442557 -0.24607174 -0.13471349
000200 78 15 d6 be 16 c9 a3 bd a4 54 aa bd e7 0e 1c 3f
       -0.41813254 -0.079973385 -0.08316925 0.6096024
000210 86 6f 26 3e 8e 35 e1 3e 5c 47 5d 3e 58 46 e7 bc
       0.1625348 0.4398617 0.21609253 -0.028231785
000220 e8 55 a4 be 48 69 02 3f b5 b1 75 be 39 ef 0a be
       -0.3209679 0.50941896 -0.23993571 -0.13567819
000230 66 1b c7 be 23 13 bc 3e ee a5 b1 bc 39 89 c1 3e
       -0.3888809 0.3673335 -0.021685567 0.37800005
000240 82 14 d6 3e da 37 7d 3e 98 6a 43 3c 20 56 bb be
       0.4181252 0.24728337 0.011927269 -0.36589146
000250 10 42 10 3f 7f 1e a0 3e 54 b5 80 bd 02 90 27 3f
       0.56350803 0.31273267 -0.062845856 0.65454113
000260 fc e2 24 3f e5 47 f5 3e 0c 28 d2 3e d3 66 e0 bd
       0.6440885 0.47906414 0.41046178 -0.10957112
000270 66 67 27 3f 34 d5 c1 3e 22 71 ce 3e ab 50 8b 3e
       0.6539215 0.37857974 0.40320688 0.27209982
000280 1b 45 e6 3e 6e 93 9f 3e 90 71 c4 3e 24 05 5c be
       0.44974598 0.31167167 0.3836789 -0.21486336
000290 1f a7 5b 3e 98 9f c4 3e a4 12 a6 3e 0a e8 d9 3e
       0.2145047 0.3840301 0.32436097 0.42559844
0002a0 79 5f 76 3d 65 96 8a 3e 1a d7 f4 3e d0 17 f3 3e
       0.060149644 0.27067867 0.4782036 0.47479105
0002b0 e3 f7 03 3f 5c a7 05 3f 6d 64 1b bf 59 19 b7 3e
       0.5155012 0.52208495 -0.6070011 0.35761526
0002c0 1f 8f a4 3e 12 51 cb 3e 65 e0 18 bd b3 fb fb 3e
       0.32140443 0.3971029 -0.037323374 0.4921547
0002d0 d9 be ad 3e 49 c0 71 be 46 57 d8 3e 3f 63 df be
       0.33934668 -0.23608507 0.42254084 -0.43630406
0002e0 0a 11 cc 3e 34 5e b0 3e 7e 37 6e 3e d4 bf ed bc
       0.3985675 0.3444687 0.23263356 -0.029022135
0002f0 9d c7 c6 3e 05 6a 1d be 2c c1 e6 3e 21 0f 45 3e
       0.38824168 -0.15372474 0.45069253 0.19244052
000300 fa f3 05 3f 87 c6 c4 3e f0 29 30 3f f1 ff f5 3e
       0.52325404 0.38432714 0.6881399 0.4804683
000310 e0 da ed 3e 32 70 f7 3e 20 81 01 3f 09 6a e6 be
       0.4645605 0.48327786 0.50587654 -0.45002773
000320 c9 ad 94 3e 68 62 85 bd ea 0b ae 3e 7b e1 e5 3e
       0.29038838 -0.0651291 0.33993465 0.4489859
000330 0e bf b3 3e 95 a6 a8 be a5 8e e9 bd 95 e7 c2 3e
       0.351067 -0.32939592 -0.114041604 0.38067308
000340 56 11 e5 3e 4a ef 30 be 00 1e fc bc 8c aa 1d 3f
       0.4473979 -0.17278782 -0.030776024 0.6158836
000350 f5 ce 8e 3e 46 66 7b bd b6 61 91 3e 13 41 db 3e
       0.2789227 -0.061376832 0.2839486 0.42823085
000360 58 dc 10 3f c9 ef be be c8 14 8c 3c af 07 7f 3f
       0.5658622 -0.37292317 0.017099753 0.996211
000370 38 d6 30 3f 48 a5 95 3e 71 8b 9d be 7c 62 82 3d
       0.6907687 0.29227662 -0.30770448 0.06366441
000380 59 f5 a6 3e f2 e7 1a 3e b7 b6 1d 3e 1d d1 2d be
       0.3260906 0.15127543 0.15401731 -0.16974302
000390 75 e3 59 be 9d d3 33 3f 27 e7 0d 3f 8e f5 2b 3d
       -0.21278174 0.7024477 0.55430835 0.041982226
0003a0 00 31 50 bd e1 86 d1 bd 61 7c 19 bc 82 9f ed 3e
       -0.05082798 -0.10230804 -0.009368033 0.46410757
0003b0 b4 e2 aa 3e 4a 19 8a 3e 6b b0 7d 3d 57 c3 28 3f
       0.33376086 0.2697242 0.061935823 0.65923065
0003c0 0c 88 1a 3f 27 a1 7d be 24 a7 13 bf c2 41 e1 3d
       0.6036384 -0.24768506 -0.5767691 0.109988704
0003d0 bb 67 10 be 6c fb 07 be e2 c6 07 be 9b 71 7a 3f
       -0.1410207 -0.13279504 -0.13259462 0.978296
0003e0 1e 73 91 be c9 1b 1d 3e d6 46 05 be bd 4c 1a 3e
       -0.2840814 0.1534263 -0.13015303 0.15068336
0003f0 6c 7b 23 3f 78 38 d2 3e 10 b6 08 3f d3 56 4a 3c
       0.638602 0.41058707 0.53402805 0.012349802

l1.bias f4 [8]
000000 8c 09 3e 3f 30 30 91 3f ce 64 1b 3f f6 a2 13 3f
       0.7423332 1.1342831 0.6070069 0.57670534
000010 59 9f 23 3f bd 07 6b 3f 42 90 12 3f 2f 98 60 3f
       0.6391502 0.9180868 0.5725137 0.87732214

l2.weight f4 [8, 8]
000000 58 ee fa 3e 44 38 79 3f 34 25 9e 3e e3 8a 72 bf
       0.49009967 0.9735148 0.3088776 -0.94743174
000010 4d af fa 3e 8d 60 a8 3f 39 1d 82 bf e9 ac 93 3f
       0.4896187 1.3154465 -1.0165168 1.1537143
000020 36 b3 ac bf 83 b3 35 be f2 87 27 3f 11 f8 a0 3f
       -1.3492191 -0.1774426 0.6544181 1.2575704
000030 0e 45 42 3f 42 b2 40 be ca 23 67 3f 8d 17 72 3f
       0.7588662 -0.18818 0.90288985 0.94567186
000040 b9 73 f2 3e 25 5a b7 bf 23 04 a0 3f 8c 86 0a 3e
       0.47353914 -1.4324385 1.2501262 0.13527888
000050 0d 60 49 3f 52 c6 64 3f b0 93 48 bf 88 db 8f 3f
       0.78662187 0.8936511 -0.78350353 1.1238871
000060 80 2e 74 bb 02 e6 2f be 50 1c b3 bd 48 a0 9e 3d
       -0.0037259161 -0.17177585 -0.087456346 0.07745415
000070 7f 8a 96 be c4 83 90 3d 3b 8d 29 be e0 ac 46 bd
       -0.2940254 0.07056382 -0.16557781 -0.04850471
000080 be fb 37 3e 02 c0 6c be c4 9f 08 be b7 37 68 be
       0.17967126 -0.2312012 -0.13342196 -0.22677504
000090 40 3d 1d bc b0 65 09 3d 62 2f ee bd e0 82 cf bc
       -0.009597123 0.033544242 -0.11630131 -0.02533096
0000a0 ec 95 a8 bd fb f0 01 bd 90 b4 bb 3d b7 1d 2d 3e
       -0.0823172 -0.031723958 0.09165299 0.16905867
0000b0 98 f3 8a be db de 2d bb ac 71 2c be c1 d9 67 be
       -0.27138972 -0.0026530537 -0.16840237 -0.2264166
0000c0 a5 1a 21 3f a8 fd 4a 3f b3 40 1a 3f 87 9a c9 3f
       0.6293128 0.792933 0.60254973 1.5750283
0000d0 e8 12 c1 bf dd 39 76 3f 74 81 75 3f 24 28 c8 be
       -1.5083895 0.9618204 0.95900655 -0.39093125
0000e0 ba de 99 3f 66 0d c9 3e a4 4e 27 bf 50 db 46 3e
       1.2021096 0.39268035 -0.6535437 0.19419599
0000f0 6f 80 4e 3f fc b7 95 bf b4 78 3c 3f 19 18 99 3f
       0.80664724 -1.1696773 0.7362168 1.1960479

l2.bias f4 [8]
000000 28 e5 4f 3f 5f f6 85 3e 34 6d 81 3e 5e 17 b1 be
       0.8120904 0.2616453 0.25278628 -0.3458814
000010 60 5c 99 bd a0 fb 84 be 1d be 25 3f aa 44 de 3e
       -0.07488322 -0.25973225 0.64743215 0.43411762

l3.weight f4 [8, 8]
000000 d0 8f 50 3e 9c e2 3a 3f c6 97 a0 bf 87 30 82 be
       0.2036736 0.7300203 -1.2546318 -0.25427648
000010 09 fb 82 be 41 49 92 be e2 2e 4e be 04 fb 07 3f
       -0.2558215 -0.28571513 -0.20135072 0.53117394
000020 ac c3 00 be 64 5e e6 be 05 13 21 3f f4 d6 f5 3d
       -0.12574643 -0.4499389 0.62919647 0.1200389
000030 00 95 e1 3a 44 5b b2 be e0 8a e8 3d d0 64 7a bd
       0.0017210543 -0.34835255 0.11354613 -0.0611313
000040 84 52 6a bf 8b c8 23 3f d6 df 6b bf ae 0e 5d 3e
       -0.9153216 0.6397788 -0.9213842 0.21587631
000050 70 6d d7 bc 8a 72 90 be 6e 4a 21 3f a5 b9 5e bf
       -0.026297301 -0.28212386 0.63004196 -0.8700202
000060 da db 83 be d3 86 2f 3f 4f 10 e5 3e a8 87 69 bd
       -0.2575367 0.685651 0.44739005 -0.057014138
000070 fb 19 75 be 12 cd 85 be e0 7e 9f bf 61 0c 38 3e
       -0.23935692 -0.2613302 -1.2460594 0.17973472
000080 0b 26 6f bf fa 67 7d bf 94 44 8a bf 90 1b bd 3c
       -0.93417424 -0.9898678 -1.0802178 0.023084432
000090 6b 31 51 be 86 61 49 3e d9 8d 29 3f ec 3e 28 3f
       -0.20429008 0.19666108 0.6623207 0.6572101
0000a0 05 24 3c 3f 66 43 a6 bf 56 17 b1 bc 62 92 72 be
       0.7349246 -1.2989318 -0.021617573 -0.23688653
0000b0 01 19 4a be 51 ea b6 be 02 92 8a bf 72 83 63 3f
       -0.197361 -0.35725644 -1.0825808 0.88872445
0000c0 cc 0d 21 3f 64 d9 17 3e 47 27 1e 3f 60 f8 be bd
       0.6291168 0.14829022 0.6177868 -0.093247175
0000d0 00 e8 72 39 d4 b9 51 3e 9f db 5f bf d9 5d 5a bf
       0.00023165345 0.20481044 -0.8744449 -0.8529945
0000e0 2e af 4c 3f a3 40 b8 bf e6 e5 a0 be 8e 61 77 be
       0.79954803 -1.4394726 -0.314254 -0.24158308
0000f0 00 4f 41 3c 61 f7 b5 be 9a 4f 24 3f 50 92 04 bf
       0.01179862 -0.35540298 0.6418396 -0.51785755

l3.bias f4 [8]
000000 fd e2 88 be 23 dc 31 bf 33 d7 79 3e c1 4e 03 bf
       -0.26735678 -0.69476527 0.24398498 -0.51292044
000010 d1 c1 96 be db 01 9a bd 5f c8 13 3c 98 42 18 3f
       -0.29444745 -0.07519885 0.00901994 0.59476614
