utils/data.pth (torch, 6231 bytes, 6 tensors)

l1.weight f4 [8, 78]
0.09491634 -0.16267107 0.39848623 0.24153115 0.1459389 -0.15359332 0.6511713 -0.26384336
-0.25380266 -0.58287746 0.25316393 0.19370478 -0.072735734 -0.37860832 0.37505364 0.6844808
-0.28485498 -0.13557953 -0.21401623 0.5735 0.1720832 -0.46718687 -0.48534817 -0.08177331
-0.1226964 -0.24386546 0.4626539 0.13476549 0.46408683 -0.5828429 -0.5828688 -0.5828554
0.37261602 0.1391715 0.108060315 0.20632407 0.24771225 0.6732355 0.33366284 -0.15851222
-0.0031322546 -0.25971016 1.042128 0.005837619 -0.13714816 -0.10416153 0.4054365 0.5982641
-0.22514991 0.042693608 -0.09888124 0.6354071 0.34234995 0.6670844 0.32161212 0.2394307
-0.14134012 0.10136804 0.485136 -0.5827955 -0.13433203 -0.48209828 -0.38083118 0.094817944
0.044026405 0.5956104 0.46996665 0.036684334 -0.19360931 -0.111629546 -0.20296201 0.087214716
0.9428412 0.11322102 0.5383015 0.072328076 0.16600278 -0.07918929 -0.36003625 -0.37368986
-0.04820175 -0.25020993 -0.63962895 -0.13351819 -0.18640195 -0.28953332 0.6981431 0.70320123
-0.30558786 -0.58333004 -0.35907075 -0.32807752 0.48364872 0.32451215 -0.2897573 0.634656
-0.32066768 0.42708224 0.46518445 0.4100445 0.6187026 -0.16367778 -0.15554357 -0.22536317
0.32940647 0.46254894 0.37773225 0.70343214 0.79299194 0.7504802 0.23180883 -0.22963265
0.57256705 0.1741615 -0.038334034 0.2855616 0.3437388 0.43251622 0.42788258 -0.5159544
-0.40478864 0.48597902 -0.34764954 -0.19074667 -0.02671908 0.46706918 -0.40631628 -0.33929354
-0.23632286 0.35156065 0.29811972 0.43710962 0.022249885 0.3523319 0.3992833 -0.28223807
0.21554743 0.69215816 -0.29536924 -0.4083723 -0.42171007 0.54032063 -0.13121615 0.3471409
0.39308247 -0.19189017 0.68218637 -0.3011014 -0.54905725 0.5280751 0.3276282 -0.28345114
-0.2100816 0.3106162 -0.09102488 -0.26755053 0.4044497 0.70119876 0.09903977 0.47726092
0.70012105 0.53305095 -0.007508756 -0.4039712 0.4145253 0.47429162 0.6122507 0.77194834
-0.46149275 0.55123156 0.49152452 -0.23698278 -0.3763127 0.22954403 0.43323344 0.32504314
0.17217202 0.13953538 0.31821978 0.5188538 0.49041823 -0.19131015 -0.09435576 -0.21430078
0.31396708 0.4708341 0.4192678 0.4587432 -0.04032932 0.47439212 -0.5409324 0.2971388
0.4329704 -0.21196248 -0.18655771 -0.38888636 -0.37843415 0.6999838 -0.75000155 0.24425639
0.43796155 0.53453285 -0.041329898 -0.29556912 0.41649976 0.37965152 0.41176695 0.32320786
-0.07583735 0.41419655 0.23847814 0.3828938 0.17429411 0.5813025 -0.023341864 0.5540109
-0.222187 -0.58568835 -0.2113731 -0.5013267 -0.049308468 -0.25140753 -0.2647884 -0.09951038
0.49084428 0.35977057 -0.26268026 -0.43971 0.51946366 -0.34329104 0.46986637 -0.28386724
-0.06794356 0.3897127 -0.22270933 0.41770855 0.0895002 -0.059218585 -0.3920232 0.5026877
0.19591294 0.48755953 -0.27592915 -0.6758769 -0.097676605 -0.4270795 0.53875214 0.23771274
-0.29565543 -0.22474346 0.5440846 -0.21047583 0.40134963 -0.24358219 0.3321049 -0.1820767
00000000: 8063 c23d 3f93 26be 6306 cc3e f153 773e
00000010: 0271 153e 9147 1dbe 2ab3 263f 7a16 87be
00000020: 6cf2 81be 7537 15bf b49e 813e 8c5a 463e
00000030: 79f6 94bd f3d8 c1be 0807 c03e 223a 2f3f
00000040: 83d8 91be 5cd5 0abe 1227 5bbe e5d0 123f
00000050: 9436 303e 1e33 efbe 8e7f f8be c478 a7bd
00000060: 4048 fbbd deb7 79be f9e0 ec3e f7ff 093e
00000070: ca9c ed3e 3135 15bf e436 15bf 0336 15bf
00000080: 87c7 be3e f982 0e3e ba4e dd3d 9e46 533e
00000090: 48a8 7d3e 2959 2c3f dbd5 aa3e 0751 22be
000000a0: 8346 4dbb bbf8 84be 7364 853f 7f49 bf3b
000000b0: 9170 0cbe a452 d5bd 5f95 cf3e d627 193f
000000c0: b38d 66be 7edf 2e3d 3f82 cabd 0aaa 223f
000000d0: 7e48 af3e 0bc6 2a3f 58aa a43e 522d 753e
000000e0: 77bb 10be 0c9a cf3d bf63 f83e 1632 15bf
000000f0: 568e 09be 96d5 f6be 4efc c2be e92f c23d
00000100: 0855 343d ec79 183f 789f f03e 5042 163d
00000110: 8541 46be 089e e4bd 46d5 4fbe a19d b23d
00000120: 0a5e 713f 6ce0 e73d 21ce 093f be20 943d
00000130: a2fc 293e ff2d a2bd ac56 b8be 4754 bfbe
00000140: 336f 45bd 841b 80be b9be 23bf feb8 08be
00000150: 27e0 3ebe b63d 94be 82b9 323f ff04 343f
00000160: 0376 9cbe 1e55 15bf 1fd8 b7be c7f9 a7be
00000170: cea0 f73e 7526 a63e 125b 94be d178 223f
00000180: 8e2e a4be 86aa da3e a82c ee3e 5af1 d13e
00000190: 4b63 1e3f 269b 27be d046 1fbe 9ac5 66be
000001a0: f7a7 a83e 37d3 ec3e 1f66 c13e 2114 343f
000001b0: 8501 4b3f 781f 403f 4b5f 6d3e d224 6bbe
000001c0: c193 123f 6457 323e 2604 1dbd 2135 923e
000001d0: 88fe af3e c472 dd3e 6d13 db3e 9615 04bf
000001e0: 7540 cfbe 3ed2 f83e 1fff b1be 1853 43be
000001f0: f9e1 dabc b123 ef3e b008 d0be e2b7 adbe
00000200: 9ffe 71be c2ff b33e 26a3 983e d5cc df3e
00000210: 6445 b63c d964 b43e dc6e cc3e 8281 90be
00000220: 77b8 5c3e 4731 313f a33a 97be 2d16 d1be
00000230: 62ea d7be 7452 0a3f 875d 06be 74bc b13e
00000240: 1b42 c93e db7e 44be c4a3 2e3f f629 9abe
00000250: 048f 0cbf ee2f 073f e2be a73e 8220 91be
00000260: a21f 57be 1609 9f3e 416b babd 62fc 88be
00000270: 0814 cf3e c381 333f 5dd5 ca3d 8b5b f43e
00000280: 223b 333f 0776 083f 030c f6bb 50d5 cebe
00000290: a93c d43e 5ad6 f23e 76bc 1c3f 689e 453f
000002a0: c748 ecbe 831d 0d3f 1aa9 fb3e 9dab 72be
000002b0: 0fac c0be 970d 6b3e c6d0 dd3e 0e6c a63e
000002c0: dd4d 303e 5de2 0e3e b4ed a23e 9ad3 043f
000002d0: 1918 fb3e cfe6 43be 983d c1bd aa71 5bbe
000002e0: 4bc0 a03e 2b11 f13e 45aa d63e 64e0 ea3e
000002f0: 5b30 25bd 86e3 f23e 8c7a 0abf 9422 983e
00000300: 4cae dd3e b10c 59be fc08 3fbe 1d1c c7be
00000310: 1fc2 c1be 2332 333f 1a00 40bf 591e 7a3e
00000320: 7f3c e03e 25d7 083f 8a49 29bd d654 97be
00000330: 753f d53e af61 c23e 1ed3 d23e 807b a53e
00000340: 9d50 9bbd 9211 d43e 9d33 743e a80a c43e
00000350: 287a 323e 3ed0 143f 7037 bfbc a9d3 0d3f
00000360: fd84 63be acef 15bf 3172 58be f256 00bf
00000370: adf7 49bd 7db8 80be 5892 87be 19cc cbbd
00000380: f14f fb3e d933 b83e 077e 86be ab21 e1be
00000390: 92fb 043f d8c3 afbe 5392 f03e 0c57 91be
000003a0: fe25 8bbd 6c88 c73e ea0d 64be e5dd d53e
000003b0: e14b b73d 308f 72bd 44b7 c8be 24b0 003f
000003c0: 679d 483e 67a1 f93e 9646 8dbe 4506 2dbf
000003d0: ac0a c8bd 2aaa dabe a9eb 093f f86a 733e
000003e0: 2660 97be 2623 66be 2149 0b3f fa86 57be
000003f0: b37d cd3e 9c6d 79be a709 aa3e 5072 3abe

l1.bias f4 [8]
0.5828611 0.90810025 0.74986404 0.67588496 0.40924773 0.71840775 0.52227795 0.875382
00000000: 6336 153f 4279 683f 17f7 3f3f cc06 2d3f
00000010: eb88 d13e 92e9 373f 02b4 053f 0919 603f

l2.weight f4 [8, 8]
0.7739487 0.7314192 -1.3423134 0.96874857 -0.090018414 1.3305578 0.44500828 0.51397383
1.6141934 1.0758843 -0.34110597 0.37788323 1.407786 0.55563575 1.2358034 -0.9436482
-0.5339745 0.9991835 -0.014402898 0.05543409 -0.92389274 1.1571789 -0.84043044 1.2292433
-0.8515035 1.3833904 0.36484835 0.2346846 -0.4281236 0.2870514 1.2060269 -0.5038305
0.7109928 0.95687675 1.4619043 -1.0828028 0.62967193 -0.5470411 -0.74669677 1.2101016
-0.05447411 -0.20286845 -0.36198616 -0.019312445 -0.0013115319 0.14392146 0.13953006 0.031340104
0.19957037 -0.33788797 0.94635487 1.4354519 -0.92411655 -0.46696055 0.5290101 0.84945357
-0.3047798 -0.09782165 -0.23462033 -0.14978155 -0.18241687 -0.121465534 -0.14113773 -0.17455804
00000000: 8121 463f 4a3e 3b3f edd0 abbf e8ff 773f
00000010: 935b b8bd b84f aa3f 20d8 e33e ca93 033f
00000020: e49d ce3f 94b6 893f 71a5 aebe e979 c13e
00000030: 5532 b43f 253e 0e3f ce2e 9e3f ee92 71bf
00000040: 8eb2 08bf 7dca 7f3f 22fa 6bbc db0e 633d
00000050: 3c84 6cbf 701e 943f 7326 57bf d857 9d3f
00000060: 22fc 59bf f012 b13f 67cd ba3e 2951 703e
00000070: 0433 dbbe 67f8 923e 175f 9a3f 09fb 00bf
00000080: a003 363f e0f5 743f ae1f bb3f 4899 8abf
00000090: 2e32 213f e30a 0cbf 8527 3fbf 9ce4 9a3f
000000a0: 3f20 5fbd bfbc 4fbe 4056 b9be 2235 9ebc
000000b0: b5e7 abba 2660 133e f8e0 0e3e 7b5e 003d
000000c0: 2d5c 4c3e a7ff acbe 5044 723f e3bc b73f
000000d0: e792 6cbf 7415 efbe 356d 073f ca75 593f
000000e0: 190c 9cbe b856 c8bd 5040 70be 5660 19be
000000f0: 7dcb 3abe ecc2 f8bd 6986 10be 58bf 32be

l2.bias f4 [8]
0.16234118 0.07480393 0.5723563 0.41206953 0.3369501 -0.37120935 0.6536407 -0.19463237
00000000: c43c 263e ce32 993d f185 123f c7fa d23e
00000010: b984 ac3e 270f bebe ff54 273f b54d 47be

l3.weight f4 [9, 8]
-1.146862 -1.2323587 0.20613118 -2.0522738 0.9312939 -0.028399061 0.8737921 0.093981236
0.46091408 0.04573701 0.07159209 -1.4341365 0.3335813 -0.23282854 -1.5515499 -0.12134595
0.6551636 -0.92365074 0.71516377 -1.7961854 -1.1249762 -0.19893223 0.7245858 0.04251471
-0.8125376 0.28644416 -1.161012 0.9811807 0.20535408 0.22326413 -0.91152143 -0.19036345
-0.7131948 0.46900487 -1.2002555 -0.91208047 0.7617723 -0.2796906 -0.42586374 0.106521636
0.6583676 0.9698115 -1.3187772 -0.58931226 -0.95710754 -0.3267126 -1.5167683 -0.12657002
-0.77199084 -0.13211738 -1.0452199 0.5386683 -0.72628593 0.20834182 1.1442008 0.13758793
-0.11250708 -0.7690769 0.7765331 0.4393143 0.2940803 0.16259333 -0.66899407 0.22482702
0.53011996 0.203759 -0.14085414 0.7022502 -1.5637251 0.16248839 0.08423556 -0.022546828
00000000: 60cc 92bf eebd 9dbf 0d14 533e 7458 03c0
00000010: 4769 6e3f 26a5 e8bc d7b0 5f3f 3c79 c03d
00000020: eefc eb3e bb56 3b3d e09e 923d c991 b7bf
00000030: 2bcb aa3e 9b6a 6ebe 3099 c6bf 3a84 f8bd
00000040: cdb8 273f 6074 6cbf f914 373f 67e9 e5bf
00000050: 38ff 8fbf e4b4 4bbe 747e 393f e823 2e3d
00000060: 7702 50bf cfa8 923e 0b9c 94bf a92e 7b3f
00000070: 5748 523e 5a9f 643e 7859 69bf a3ee 42be
00000080: ef93 36bf 6821 f03e f9a1 99bf 1b7e 69bf
00000090: 8203 433f 9b33 8fbe d00a dabe 0428 da3d
000000a0: c78a 283f 9145 783f b1cd a8bf 2bdd 16bf
000000b0: 0005 75bf e046 a7be 7725 c2bf 929b 01be
000000c0: 31a1 45bf c749 07be c4c9 85bf 2ae6 093f
000000d0: e0ed 39bf 8f57 553e 2c75 923f dae3 0c3e
000000e0: 1d6a e6bd 39e2 44bf e0ca 463f ceed e03e
000000f0: b191 963e de7e 263e 3243 2bbf 0e39 663e
00000100: f1b5 073f 33a6 503e 113c 10be abc6 333f
00000110: 2528 c8bf 5b63 263e b183 ac3d 20b4 b8bc

l3.bias f4 [9]
0.22114973 -0.24163862 -0.09758762 -0.09817939 -0.17021501 0.029850971 0.15931578 0.28912058
-0.41987705
00000000: 1375 623e 1d70 77be 05dc c7bd 4712 c9bd
00000010: d84c 2ebe 068a f43c ad23 233e 9d07 943e
00000020: 20fa d6be
