utils/data.pth (torch, 5719 bytes, 6 tensors)

l1.weight f4 [8, 67]
000000 b5 e3 1b 3f 2a c3 e3 be c6 ab ab 3e 3e eb 13 3f
       0.6089433 -0.44484836 0.3352949 0.57780826
000010 d8 09 49 3f aa e5 77 be 89 55 9c 3e ff 6d 8d be
       0.78530645 -0.24208704 0.30534008 -0.27622983
000020 8e 73 cd be 65 4a f5 3e fe 02 0d 3f d1 f4 0b 3f
       -0.40127224 0.4790832 0.5508269 0.54670435
000030 8e 80 50 be 56 cd 79 be 1f e4 87 be a0 7e 8d be
       -0.2036154 -0.24394736 -0.2654123 -0.2763567
000040 db 73 28 be a4 4c f5 bd 8b 40 cc bd 06 d5 b1 be
       -0.16450445 -0.11977509 -0.09973248 -0.34732836
000050 a2 5a aa bd d6 bc a4 bd 27 32 38 be fd f5 8c be
       -0.08318068 -0.0804383 -0.17987882 -0.27531424
000060 9f b5 6d be 97 46 e1 3c d4 f4 c8 bd d1 26 e9 3e
       -0.23213814 0.02749948 -0.09812322 0.45537427
000070 ef dd e4 3e b4 e9 dd 3e b8 19 48 bd bd 71 24 3f
       0.44700572 0.43342364 -0.048852652 0.6423605
000080 af 1a 09 3f 9d 44 18 be 51 a7 97 be f5 9f e1 3c
       0.5355634 -0.14869924 -0.2961984 0.027542094
000090 f3 bb 04 bf 0b 81 03 3e 5c 60 22 be 2f b2 79 be
       -0.5184929 0.12842195 -0.1585707 -0.24384378
0000a0 d0 65 60 be cd 14 07 3f cc e3 40 be 63 76 13 be
       -0.21913838 0.52766114 -0.18836898 -0.1440063
0000b0 81 60 ce 3e 9f 4e 84 be 95 ca 78 be 5c 91 0c 3d
       0.40308002 -0.25841233 -0.24296029 0.034318313
0000c0 a6 aa e6 bd cd 0d a0 be 8d bc 55 be 3b 5c be bb
       -0.11263017 -0.3126053 -0.20872708 -0.0058093346
0000d0 d5 ea 13 3f 68 ac cb bd 12 8d 15 3f 3b 8d 92 be
       0.577802 -0.09944993 0.5841838 -0.28623375
0000e0 f6 c7 b0 be 02 c0 94 be c6 0b c3 bd e6 a6 cb be
       -0.34527558 -0.2905274 -0.0952373 -0.3977577
0000f0 d5 c5 68 be 62 85 ad be 4f 7d 54 be 21 f2 95 bd
       -0.22731717 -0.33890826 -0.20750926 -0.07321573
000100 21 25 cd be 3e 7d 85 be f8 c1 8f be ae 6d d7 3e
       -0.4006739 -0.26072115 -0.28077674 0.42075866
000110 32 0a 59 be 88 22 55 bd 83 df 27 3f 2d f5 50 3f
       -0.21195295 -0.052034885 0.65575427 0.8162411
000120 80 a8 2c bd e6 8b 04 bd 21 b9 df be 09 a4 d5 3e
       -0.04215288 -0.03235998 -0.4369593 0.4172671
000130 06 51 8a 3e 03 17 01 3f ee 0a 44 3f 6a 18 55 be
       0.2701494 0.5042574 0.7657918 -0.20810094
000140 0c ed dd 3e 8d 49 c8 3e f3 61 ba be 1b 6d 87 3e
       0.43344915 0.39118615 -0.36402854 0.26450428
000150 da ca af be 8b b0 a5 3e 94 23 ea 3d 61 69 2e be
       -0.3433445 0.32361254 0.11432567 -0.17032386
000160 e0 cb 55 be a8 d4 80 be 87 f0 87 bd cd d2 a2 be
       -0.20878553 -0.25162244 -0.06637674 -0.31801453
000170 bd 69 4e 3e 5b 36 d3 3e 03 7d b7 3e e8 39 7d 3e
       0.20157523 0.41252407 0.35837564 0.2472912
000180 0a 9e ba 3e 8e 12 c9 3e 67 6f 37 3f 57 2c 09 3f
       0.364487 0.3927197 0.7165436 0.5358328
000190 b6 e9 61 3e 76 2e ae 3e b4 19 27 3e ce 35 52 be
       0.2206181 0.34019822 0.16318399 -0.20528337
0001a0 49 fa 51 bf b0 7f d8 3e 2e 20 53 be c4 02 4b be
       -0.8202253 0.42284918 -0.20617744 -0.19825274
0001b0 7f 55 17 bc 31 7a 09 3f 6f eb 78 be 36 83 fb 3e
       -0.009236692 0.53702074 -0.24308561 0.49123544
0001c0 46 dd e4 bd e7 f3 ef 3e 53 01 93 3e b9 28 19 3f
       -0.11175017 0.4686577 0.28711948 0.5982776
0001d0 55 23 c0 3c e0 73 06 3f 76 a9 de 3e 86 3b 11 3f
       0.023454348 0.5252056 0.43488663 0.5673145
0001e0 64 8d 85 3e a2 34 d5 3e 2f 91 1d bf 5b 88 81 be
       0.26084435 0.41641718 -0.6154966 -0.25299343
0001f0 e7 43 ca 3e f6 34 e8 3e ff 32 a8 3e dd 67 7b be
       0.3950493 0.45352906 0.32851407 -0.2455134
000200 7f 7a 24 be 13 7f 38 3f 6f 7d 8b be aa ad cd 3e
       -0.16062354 0.720689 -0.27244136 0.40171558
000210 57 2b 97 be 54 4c ce bd 3f c9 ca be 13 3b ff 3e
       -0.29525253 -0.10073152 -0.39606664 0.49849758
000220 a4 a9 8d 3e d6 d9 b4 be 4a 40 2e bf 15 71 00 3f
       0.27668488 -0.35322446 -0.6806685 0.5017255
000230 77 ea c1 3e b1 b0 23 be b3 ac 01 3f 56 7c db 3e
       0.37874195 -0.15985371 0.50654143 0.42868298
000240 f6 cf e6 be ff 31 34 bf 69 59 dd 3e 00 96 03 bd
       -0.45080537 -0.7038879 0.43232277 -0.032125473
000250 af ec f1 3e 2b 89 ae be 42 1b b3 3e d2 52 cb 3e
       0.47250888 -0.34089026 0.34981734 0.39711624
000260 58 54 1b 3c f4 d0 00 3f 57 d4 90 3e d3 92 cb 3e
       0.009480558 0.5031884 0.28287002 0.39760455
000270 fd 03 d0 3e f0 14 a8 3e 4d a0 b9 be af e6 bb 3e
       0.40628043 0.32828474 -0.36255112 0.36699435
000280 4a 5b 0a 3d 31 cd 0d 3f 08 fc fa 3e 3b 22 12 3f
       0.033778466 0.5539122 0.4902041 0.5708348
000290 f8 2c 79 3e 3f d7 85 be 3d 02 be 3d 40 e9 f7 3e
       0.2433356 -0.26140782 0.09277771 0.48420143
0002a0 7d f8 01 3f fb c8 a4 3e b8 90 02 3f 71 75 3d 3f
       0.5076979 0.32184586 0.51002073 0.74007326
0002b0 24 ef de 3e 01 9d db 3e e9 6d d1 3e 07 c2 9a 3e
       0.43541825 0.42893222 0.40904167 0.30226156
0002c0 10 e5 d8 3e a7 e7 85 3e 9b 50 cd be 0b fe b5 3e
       0.4236226 0.261533 -0.4010056 0.35545382
0002d0 34 70 3f be 77 9c db 3e 4e 0d 5d 3e 80 cd 52 be
       -0.18695146 0.4289281 0.21587107 -0.20586205
0002e0 bb 64 97 3d c2 39 e3 3e 87 7f c9 be 2b 08 a6 3e
       0.0739226 0.44380003 -0.39355108 0.32428107
0002f0 06 4b 14 3f 72 66 6a be bf 73 b4 be 1c 06 fb 3e
       0.57926977 -0.22890642 -0.35244557 0.490281
000300 6d f0 50 3e ff f8 36 3f 94 a1 d4 3e 62 10 99 be
       0.20404215 0.7147369 0.41529524 -0.29895312
000310 48 52 dc be 9e ee 9f 3c 67 3d 03 bf 80 df 85 be
       -0.43031526 0.019522961 -0.5126557 -0.2614708
000320 88 14 aa 3e 57 88 fd 3e 5f 40 b3 be 48 c9 8d 3e
       0.3321879 0.49518082 -0.3501005 0.27692628
000330 0f e7 17 3f a3 58 62 3f 68 81 6d be 0f ef 5d 3e
       0.5933694 0.884165 -0.23193896 0.21673225
000340 f6 f9 53 be e4 b9 78 be f0 e0 3f 3d 0d ae 32 3f
       -0.20700821 -0.24289662 0.046845376 0.6979683
000350 80 9d 4f 3f 94 21 69 be d5 fa 13 be 50 a7 d0 bd
       0.810997 -0.22766715 -0.14451154 -0.10188162
000360 55 d7 53 be 70 dd 61 be 35 12 fd bd cc 00 10 be
       -0.20687611 -0.22057128 -0.12356988 -0.14062804
000370 ab 81 30 be f1 15 38 be bb b0 50 be 48 9c e4 bd
       -0.17236964 -0.1797712 -0.20379917 -0.11162621
000380 e1 ca 84 be f9 d2 97 be 19 cb d2 bd bb bc 46 bb
       -0.25936034 -0.29653147 -0.10292644 -0.0030324894
000390 3a a3 a0 3c 27 fd 8f 3d d8 00 82 3d ec 06 b2 bd
       0.019609082 0.07030707 0.06347817 -0.086927265
0003a0 b3 09 04 3f 5b 4a 7e 3e c8 8b f1 3c 69 12 8b be
       0.515773 0.24833052 0.029485598 -0.27162483
0003b0 82 20 4f 3d 55 27 b9 be a6 b1 4d 3c 10 38 99 bd
       0.05056811 -0.3616282 0.012554562 -0.07481396
0003c0 7f d2 35 be be 32 c0 bd a7 aa e0 3d e7 32 ae 3d
       -0.17756079 -0.09384678 0.10970049 0.085058026
0003d0 3a 86 5e be 89 be 06 3f ad 2a 55 be 99 ab 11 be
       -0.21730891 0.52634484 -0.20817061 -0.14225616
0003e0 44 ad b3 3c d8 c2 99 be 9c cc 99 be 0e eb 3a bc
       0.021933205 -0.30031466 -0.30038917 -0.0114085805
0003f0 89 56 15 be c6 0a 25 3f 67 66 8c bd dc 45 ff 3c
       -0.14583792 0.64469564 -0.06855469 0.031161241

l1.bias f4 [8]
000000 87 9d 76 3f 27 e5 51 3f 4a be 66 3f e7 22 36 3f
       0.9633412 0.81990284 0.9013411 0.71147007
000010 c3 7a 90 3f 6b 09 69 3f c0 38 22 3f 1d f1 57 3f
       1.1287464 0.91029996 0.63367844 0.84352285

l2.weight f4 [8, 8]
000000 ef 8c 79 bf 2a dc 36 3f ab 53 c4 be 92 3c 86 bf
       -0.9748067 0.71429694 -0.38345084 -1.0487235
000010 d2 12 1e 3f 14 b0 b1 3f 7d c5 20 3f cd 40 56 bf
       0.6174747 1.388186 0.62801343 -0.8369263
000020 81 db 80 be ca 20 1a 3e 68 03 d2 bd 0a 70 ea bd
       -0.25167468 0.1505157 -0.10254556 -0.11447151
000030 e2 e1 62 3e 5b 73 51 be e0 f2 29 3c e5 22 67 be
       0.2215648 -0.20454161 0.010372847 -0.22571905
000040 e2 02 58 3e 31 2d b4 be a8 20 a5 be 65 6a 6a 3c
       0.2109485 -0.35190728 -0.32251477 0.014307593
000050 16 df 0e be c3 03 62 bc 91 6a 55 3d ef 76 83 be
       -0.13952288 -0.013794842 0.052103583 -0.25676677
000060 20 45 b8 3f 21 7b e5 3e 51 2f 52 bd ed 09 98 3f
       1.4396095 0.44820502 -0.051314656 1.1878029
000070 b0 83 b2 3f c8 7d 52 3f 5c e7 47 bf b8 61 7e be
       1.3946438 0.82223177 -0.780874 -0.24841964
000080 31 cb 92 bf a2 7b 66 3f 29 96 43 3f 81 cd 9e bf
       -1.1468259 0.900324 0.76401 -1.2406465
000090 28 95 bd 3d c3 fb 9b bf 0a e9 73 3e 49 2d 07 3f
       0.09256965 -1.2186207 0.23819366 0.52803475
0000a0 4b db a3 3f 0c 93 bb 3f 03 78 4b 3e f0 51 42 3f
       1.2801298 1.465425 0.1987 0.75906277
0000b0 5f db 6b 3f 66 dd 77 3f 9d 55 9f bf ef e7 14 3d
       0.9213161 0.968222 -1.2448002 0.036354
0000c0 09 cb 65 3d d1 9d 9d bf 4f 71 fc 3e d7 1c e3 be
       0.056101833 -1.2313787 0.49305198 -0.4435794
0000d0 a4 3b 53 3f af e5 ba 3e d1 6b c2 3f a2 5e 8a 3e
       0.8251288 0.3650336 1.5189153 0.27025324
0000e0 a0 ab 7b be 93 2c b5 be 77 68 de 3f 45 05 46 bf
       -0.24577188 -0.3538557 1.737563 -0.7735179
0000f0 39 96 80 3f d7 06 61 be 5c 29 a0 bc 7d f2 99 3f
       1.0045844 -0.21975265 -0.019550972 1.2027127

l2.bias f4 [8]
000000 28 24 c6 3e 82 e3 7d be 70 4f 24 be ca 5d 14 3f
       0.3869946 -0.24793819 -0.16045928 0.5795561
000010 dc 0a 1c 3e 04 38 be 3e d3 9b 2b 3f 7a a3 f6 3e
       0.15238518 0.37152112 0.67034644 0.48171598

l3.weight f4 [8, 8]
000000 66 59 4b bf 33 72 a5 be 10 d3 0f be f1 02 22 3f
       -0.79433286 -0.3231369 -0.14045358 0.6328574
000010 52 d3 66 bf e0 e7 28 3f 1c f5 dc bf 69 b5 eb bf
       -0.901662 0.65978813 -1.7262301 -1.8414737
000020 93 b3 35 bf 31 04 9f 3e 56 07 9a 3d 68 09 78 bf
       -0.70977134 0.31057885 0.075209305 -0.9688935
000030 4f 06 0d 3f 62 d1 88 3d 9b 01 9e bf a5 cc 20 3f
       0.5508775 0.066805616 -1.234424 0.6281226
000040 95 4b 5b 3f 82 1b 9c be 3a 29 18 be f6 d5 25 bf
       0.85662204 -0.30489737 -0.14859477 -0.64779603
000050 c3 52 4a bf 99 8a a2 bf 10 f2 5a 3f 7e f8 92 bf
       -0.79032534 -1.2698547 0.8552561 -1.1482084
000060 e3 b2 00 3f 4f 83 a8 3e 80 1a 44 3e 2c c5 a6 be
       0.5027296 0.3291268 0.19150734 -0.32572305
000070 13 b9 47 bf a3 8a 8b be aa 32 8c be 87 f5 72 3e
       -0.78016776 -0.2725421 -0.27382404 0.23726474
000080 60 61 6e 3f 75 0e ac 3e 3e 21 53 be 14 92 5a be
       0.9311733 0.3360478 -0.2061815 -0.21344787
000090 6e 8e ce bf c5 06 94 3e 6a ca 75 bf 09 b3 a3 bf
       -1.6137216 0.28911415 -0.96011984 -1.2789012
0000a0 93 4a a6 bf 28 86 a4 bd 5e 96 1d 3e c7 ca 28 be
       -1.2991508 -0.08033401 0.15389392 -0.16483603
0000b0 42 0e 99 bf 59 e8 3f bf 31 8d 33 3f c9 05 a8 3e
       -1.1957476 -0.7496391 0.70137316 0.32816914
0000c0 1a d7 6a bf 84 42 e3 3d fb 2b 9a 3e cd 59 a1 bf
       -0.9173447 0.11096671 0.3011168 -1.260553
0000d0 71 97 48 3f 2c c5 a5 bf 06 7b cc 3e 74 21 09 3f
       0.7835608 -1.2950797 0.3993761 0.5356667
0000e0 af 0a a4 bf 32 f0 6e 3e eb 3b 4c be aa 8f 22 3e
       -1.281576 0.23333815 -0.19944732 0.15875116
0000f0 54 1a b7 bf 3d ba ea 3e 88 e6 32 bf 41 c9 06 3e
       -1.430491 0.45845214 -0.6988301 0.1316271

l3.bias f4 [8]
000000 2c df 33 bc 77 99 d3 3d 81 d0 ab 3e cf f0 10 bf
       -0.010978501 0.103320055 0.33557513 -0.56617445
000010 7f ba 38 bd 94 d1 29 3e 89 63 45 3e 23 33 37 3e
       -0.04509973 0.16583854 0.19276251 0.17890601
